…
 conv1/7x7_s2/bn (BatchNormaliz  (None, 112, 112, 64  256        ['conv1/7x7_s2[0][0]']           
 ation)                         )                                                                 
                                                                                                  
 activation (Activation)        (None, 112, 112, 64  0           ['conv1/7x7_s2/bn[0][0]']        
                                )                                                                 
                                                                                                  
 max_pooling2d (MaxPooling2D)   (None, 55, 55, 64)   0           ['activation[0][0]']             
                                                                                                  
 conv2_1_1x1_reduce (Conv2D)    (None, 55, 55, 64)   4096        ['max_pooling2d[0][0]']          
                                                                                                  
 conv2_1_1x1_reduce/bn (BatchNo  (None, 55, 55, 64)  256         ['conv2_1_1x1_reduce[0][0]']     
 rmalization)                                                                                     
                                                                                                  
 activation_1 (Activation)      (None, 55, 55, 64)   0           ['conv2_1_1x1_reduce/bn[0][0]']  
                                                                                                  
 conv2_1_3x3 (Conv2D)           (None, 55, 55, 64)   36864       ['activation_1[0][0]']           
                                                                                                  
 conv2_1_3x3/bn (BatchNormaliza  (None, 55, 55, 64)  256         ['conv2_1_3x3[0][0]']            
 tion)                                                                                            
                                                                                                  
 activation_2 (Activation)      (None, 55, 55, 64)   0           ['conv2_1_3x3/bn[0][0]']         
                                                                                                  
 conv2_1_1x1_increase (Conv2D)  (None, 55, 55, 256)  16384       ['activation_2[0][0]']           
                                                                                                  
 conv2_1_1x1_increase/bn (Batch  (None, 55, 55, 256)  1024       ['conv2_1_1x1_increase[0][0]']   
 Normalization)                                                                                   
                                                                                                  
 global_average_pooling2d (Glob  (None, 256)         0           ['conv2_1_1x1_increase/bn[0][0]']
 alAveragePooling2D)                                                                              
                                                                                                  
 reshape (Reshape)              (None, 1, 1, 256)    0           ['global_average_pooling2d[0][0]'
                                                                 ]                                
                                                                                                  
 conv2_1_1x1_down (Conv2D)      (None, 1, 1, 16)     4112        ['reshape[0][0]']                
                                                                                                  
 activation_3 (Activation)      (None, 1, 1, 16)     0           ['conv2_1_1x1_down[0][0]']       
                                                                                                  
 conv2_1_1x1_up (Conv2D)        (None, 1, 1, 256)    4352        ['activation_3[0][0]']           
                                                                                                  
 activation_4 (Activation)      (None, 1, 1, 256)    0           ['conv2_1_1x1_up[0][0]']         
                                                                                                  
 conv2_1_1x1_proj (Conv2D)      (None, 55, 55, 256)  16384       ['max_pooling2d[0][0]']          
                                                                                                  
 multiply (Multiply)            (None, 55, 55, 256)  0           ['conv2_1_1x1_increase/bn[0][0]',
                                                                  'activation_4[0][0]']           
                                                                                                  
 conv2_1_1x1_proj/bn (BatchNorm  (None, 55, 55, 256)  1024       ['conv2_1_1x1_proj[0][0]']       
 alization)                                                                                       
                                                                                                  
 add (Add)                      (None, 55, 55, 256)  0           ['multiply[0][0]',               
                                                                  'conv2_1_1x1_proj/bn[0][0]']    
                                                                                                  
 activation_5 (Activation)      (None, 55, 55, 256)  0           ['add[0][0]']                    
                                                                                                  
 conv2_2_1x1_reduce (Conv2D)    (None, 55, 55, 64)   16384       ['activation_5[0][0]']           
                                                                                                  
 conv2_2_1x1_reduce/bn (BatchNo  (None, 55, 55, 64)  256         ['conv2_2_1x1_reduce[0][0]']     
 rmalization)                                                                                     
                                                                                                  
 activation_6 (Activation)      (None, 55, 55, 64)   0           ['conv2_2_1x1_reduce/bn[0][0]']  
                                                                                                  
 conv2_2_3x3 (Conv2D)           (None, 55, 55, 64)   36864       ['activation_6[0][0]']           
                                                                                                  
 conv2_2_3x3/bn (BatchNormaliza  (None, 55, 55, 64)  256         ['conv2_2_3x3[0][0]']            
 tion)                                                                                            
                                                                                                  
 activation_7 (Activation)      (None, 55, 55, 64)   0           ['conv2_2_3x3/bn[0][0]']         
                                                                                                  
 conv2_2_1x1_increase (Conv2D)  (None, 55, 55, 256)  16384       ['activation_7[0][0]']           
                                                                                                  
 conv2_2_1x1_increase/bn (Batch  (None, 55, 55, 256)  1024       ['conv2_2_1x1_increase[0][0]']   
 Normalization)                                                                                   
                                                                                                  
 global_average_pooling2d_1 (Gl  (None, 256)         0           ['conv2_2_1x1_increase/bn[0][0]']
 obalAveragePooling2D)                                                                            
                                                                                                  
 reshape_1 (Reshape)            (None, 1, 1, 256)    0           ['global_average_pooling2d_1[0][0
                                                                 ]']                              
                                                                                                  
 conv2_2_1x1_down (Conv2D)      (None, 1, 1, 16)     4112        ['reshape_1[0][0]']              
                                                                                                  
 activation_8 (Activation)      (None, 1, 1, 16)     0           ['conv2_2_1x1_down[0][0]']       
                                                                                                  
 conv2_2_1x1_up (Conv2D)        (None, 1, 1, 256)    4352        ['activation_8[0][0]']           
                                                                                                  
 activation_9 (Activation)      (None, 1, 1, 256)    0           ['conv2_2_1x1_up[0][0]']         
                                                                                                  
 multiply_1 (Multiply)          (None, 55, 55, 256)  0           ['conv2_2_1x1_increase/bn[0][0]',
                                                                  'activation_9[0][0]']           
                                                                                                  
 add_1 (Add)                    (None, 55, 55, 256)  0           ['multiply_1[0][0]',             
                                                                  'activation_5[0][0]']           
                                                                                                  
 activation_10 (Activation)     (None, 55, 55, 256)  0           ['add_1[0][0]']                  
                                                                                                  
 conv2_3_1x1_reduce (Conv2D)    (None, 55, 55, 64)   16384       ['activation_10[0][0]']          
                                                                                                  
 conv2_3_1x1_reduce/bn (BatchNo  (None, 55, 55, 64)  256         ['conv2_3_1x1_reduce[0][0]']     
 rmalization)                                                                                     
                                                                                                  
 activation_11 (Activation)     (None, 55, 55, 64)   0           ['conv2_3_1x1_reduce/bn[0][0]']  
                                                                                                  
 conv2_3_3x3 (Conv2D)           (None, 55, 55, 64)   36864       ['activation_11[0][0]']          
                                                                                                  
 conv2_3_3x3/bn (BatchNormaliza  (None, 55, 55, 64)  256         ['conv2_3_3x3[0][0]']            
 tion)                                                                                            
                                                                                                  
 activation_12 (Activation)     (None, 55, 55, 64)   0           ['conv2_3_3x3/bn[0][0]']         
                                                                                                  
 conv2_3_1x1_increase (Conv2D)  (None, 55, 55, 256)  16384       ['activation_12[0][0]']          
                                                                                                  
 conv2_3_1x1_increase/bn (Batch  (None, 55, 55, 256)  1024       ['conv2_3_1x1_increase[0][0]']   
 Normalization)                                                                                   
                                                                                                  
 global_average_pooling2d_2 (Gl  (None, 256)         0           ['conv2_3_1x1_increase/bn[0][0]']
 obalAveragePooling2D)                                                                            
                                                                                                  
 reshape_2 (Reshape)            (None, 1, 1, 256)    0           ['global_average_pooling2d_2[0][0
                                                                 ]']                              
                                                                                                  
 conv2_3_1x1_down (Conv2D)      (None, 1, 1, 16)     4112        ['reshape_2[0][0]']              
                                                                                                  
 activation_13 (Activation)     (None, 1, 1, 16)     0           ['conv2_3_1x1_down[0][0]']       
                                                                                                  
 conv2_3_1x1_up (Conv2D)        (None, 1, 1, 256)    4352        ['activation_13[0][0]']          
                                                                                                  
 activation_14 (Activation)     (None, 1, 1, 256)    0           ['conv2_3_1x1_up[0][0]']         
                                                                                                  
 multiply_2 (Multiply)          (None, 55, 55, 256)  0           ['conv2_3_1x1_increase/bn[0][0]',
                                                                  'activation_14[0][0]']          
                                                                                                  
 add_2 (Add)                    (None, 55, 55, 256)  0           ['multiply_2[0][0]',             
                                                                  'activation_10[0][0]']          
                                                                                                  
 activation_15 (Activation)     (None, 55, 55, 256)  0           ['add_2[0][0]']                  
                                                                                                  
 conv3_1_1x1_reduce (Conv2D)    (None, 28, 28, 128)  32768       ['activation_15[0][0]']          
                                                                                                  
 conv3_1_1x1_reduce/bn (BatchNo  (None, 28, 28, 128)  512        ['conv3_1_1x1_reduce[0][0]']     
 rmalization)                                                                                     
                                                                                                  
 activation_16 (Activation)     (None, 28, 28, 128)  0           ['conv3_1_1x1_reduce/bn[0][0]']  
                                                                                                  
 conv3_1_3x3 (Conv2D)           (None, 28, 28, 128)  147456      ['activation_16[0][0]']          
                                                                                                  
 conv3_1_3x3/bn (BatchNormaliza  (None, 28, 28, 128)  512        ['conv3_1_3x3[0][0]']            
 tion)                                                                                            
                                                                                                  
 activation_17 (Activation)     (None, 28, 28, 128)  0           ['conv3_1_3x3/bn[0][0]']         
                                                                                                  
 conv3_1_1x1_increase (Conv2D)  (None, 28, 28, 512)  65536       ['activation_17[0][0]']          
                                                                                                  
 conv3_1_1x1_increase/bn (Batch  (None, 28, 28, 512)  2048       ['conv3_1_1x1_increase[0][0]']   
 Normalization)                                                                                   
                                                                                                  
 global_average_pooling2d_3 (Gl  (None, 512)         0           ['conv3_1_1x1_increase/bn[0][0]']
 obalAveragePooling2D)                                                                            
                                                                                                  
 reshape_3 (Reshape)            (None, 1, 1, 512)    0           ['global_average_pooling2d_3[0][0
                                                                 ]']                              
                                                                                                  
 conv3_1_1x1_down (Conv2D)      (None, 1, 1, 32)     16416       ['reshape_3[0][0]']              
                                                                                                  
 activation_18 (Activation)     (None, 1, 1, 32)     0           ['conv3_1_1x1_down[0][0]']       
                                                                                                  
 conv3_1_1x1_up (Conv2D)        (None, 1, 1, 512)    16896       ['activation_18[0][0]']          
                                                                                                  
 activation_19 (Activation)     (None, 1, 1, 512)    0           ['conv3_1_1x1_up[0][0]']         
                                                                                                  
 conv3_1_1x1_proj (Conv2D)      (None, 28, 28, 512)  131072      ['activation_15[0][0]']          
                                                                                                  
 multiply_3 (Multiply)          (None, 28, 28, 512)  0           ['conv3_1_1x1_increase/bn[0][0]',
                                                                  'activation_19[0][0]']          
                                                                                                  
 conv3_1_1x1_proj/bn (BatchNorm  (None, 28, 28, 512)  2048       ['conv3_1_1x1_proj[0][0]']       
 alization)                                                                                       
                                                                                                  
 add_3 (Add)                    (None, 28, 28, 512)  0           ['multiply_3[0][0]',             
                                                                  'conv3_1_1x1_proj/bn[0][0]']    
                                                                                                  
 activation_20 (Activation)     (None, 28, 28, 512)  0           ['add_3[0][0]']                  
                                                                                                  
 conv3_2_1x1_reduce (Conv2D)    (None, 28, 28, 128)  65536       ['activation_20[0][0]']          
                                                                                                  
 conv3_2_1x1_reduce/bn (BatchNo  (None, 28, 28, 128)  512        ['conv3_2_1x1_reduce[0][0]']     
 rmalization)                                                                                     
                                                                                                  
 activation_21 (Activation)     (None, 28, 28, 128)  0           ['conv3_2_1x1_reduce/bn[0][0]']  
                                                                                                  
 conv3_2_3x3 (Conv2D)           (None, 28, 28, 128)  147456      ['activation_21[0][0]']          
                                                                                                  
 conv3_2_3x3/bn (BatchNormaliza  (None, 28, 28, 128)  512        ['conv3_2_3x3[0][0]']            
 tion)                                                                                            
                                                                                                  
 activation_22 (Activation)     (None, 28, 28, 128)  0           ['conv3_2_3x3/bn[0][0]']         
                                                                                                  
 conv3_2_1x1_increase (Conv2D)  (None, 28, 28, 512)  65536       ['activation_22[0][0]']          
                                                                                                  
 conv3_2_1x1_increase/bn (Batch  (None, 28, 28, 512)  2048       ['conv3_2_1x1_increase[0][0]']   
 Normalization)                                                                                   
                                                                                                  
 global_average_pooling2d_4 (Gl  (None, 512)         0           ['conv3_2_1x1_increase/bn[0][0]']
 obalAveragePooling2D)                                                                            
                                                                                                  
 reshape_4 (Reshape)            (None, 1, 1, 512)    0           ['global_average_pooling2d_4[0][0
                                                                 ]']                              
                                                                                                  
 conv3_2_1x1_down (Conv2D)      (None, 1, 1, 32)     16416       ['reshape_4[0][0]']              
                                                                                                  
 activation_23 (Activation)     (None, 1, 1, 32)     0           ['conv3_2_1x1_down[0][0]']       
                                                                                                  
 conv3_2_1x1_up (Conv2D)        (None, 1, 1, 512)    16896       ['activation_23[0][0]']          
                                                                                                  
 activation_24 (Activation)     (None, 1, 1, 512)    0           ['conv3_2_1x1_up[0][0]']         
                                                                                                  
 multiply_4 (Multiply)          (None, 28, 28, 512)  0           ['conv3_2_1x1_increase/bn[0][0]',
                                                                  'activation_24[0][0]']          
                                                                                                  
 add_4 (Add)                    (None, 28, 28, 512)  0           ['multiply_4[0][0]',             
                                                                  'activation_20[0][0]']          
                                                                                                  
 activation_25 (Activation)     (None, 28, 28, 512)  0           ['add_4[0][0]']                  
                                                                                                  
 conv3_3_1x1_reduce (Conv2D)    (None, 28, 28, 128)  65536       ['activation_25[0][0]']          
                                                                                                  
 conv3_3_1x1_reduce/bn (BatchNo  (None, 28, 28, 128)  512        ['conv3_3_1x1_reduce[0][0]']     
 rmalization)                                                                                     
                                                                                                  
 activation_26 (Activation)     (None, 28, 28, 128)  0           ['conv3_3_1x1_reduce/bn[0][0]']  
                                                                                                  
 conv3_3_3x3 (Conv2D)           (None, 28, 28, 128)  147456      ['activation_26[0][0]']          
                                                                                                  
 conv3_3_3x3/bn (BatchNormaliza  (None, 28, 28, 128)  512        ['conv3_3_3x3[0][0]']            
 tion)                                                                                            
                                                                                                  
 activation_27 (Activation)     (None, 28, 28, 128)  0           ['conv3_3_3x3/bn[0][0]']         
                                                                                                  
 conv3_3_1x1_increase (Conv2D)  (None, 28, 28, 512)  65536       ['activation_27[0][0]']          
                                                                                                  
 conv3_3_1x1_increase/bn (Batch  (None, 28, 28, 512)  2048       ['conv3_3_1x1_increase[0][0]']   
 Normalization)                                                                                   
                                                                                                  
 global_average_pooling2d_5 (Gl  (None, 512)         0           ['conv3_3_1x1_increase/bn[0][0]']
 obalAveragePooling2D)                                                                            
                                                                                                  
 reshape_5 (Reshape)            (None, 1, 1, 512)    0           ['global_average_pooling2d_5[0][0
                                                                 ]']                              
                                                                                                  
 conv3_3_1x1_down (Conv2D)      (None, 1, 1, 32)     16416       ['reshape_5[0][0]']              
                                                                                                  
 activation_28 (Activation)     (None, 1, 1, 32)     0           ['conv3_3_1x1_down[0][0]']       
                                                                                                  
 conv3_3_1x1_up (Conv2D)        (None, 1, 1, 512)    16896       ['activation_28[0][0]']          
                                                                                                  
 activation_29 (Activation)     (None, 1, 1, 512)    0           ['conv3_3_1x1_up[0][0]']         
                                                                                                  
 multiply_5 (Multiply)          (None, 28, 28, 512)  0           ['conv3_3_1x1_increase/bn[0][0]',
                                                                  'activation_29[0][0]']          
                                                                                                  
 add_5 (Add)                    (None, 28, 28, 512)  0           ['multiply_5[0][0]',             
                                                                  'activation_25[0][0]']          
                                                                                                  
 activation_30 (Activation)     (None, 28, 28, 512)  0           ['add_5[0][0]']                  
                                                                                                  
 conv3_4_1x1_reduce (Conv2D)    (None, 28, 28, 128)  65536       ['activation_30[0][0]']          
                                                                                                  
 conv3_4_1x1_reduce/bn (BatchNo  (None, 28, 28, 128)  512        ['conv3_4_1x1_reduce[0][0]']     
 rmalization)                                                                                     
                                                                                                  
 activation_31 (Activation)     (None, 28, 28, 128)  0           ['conv3_4_1x1_reduce/bn[0][0]']  
                                                                                                  
 conv3_4_3x3 (Conv2D)           (None, 28, 28, 128)  147456      ['activation_31[0][0]']          
                                                                                                  
 conv3_4_3x3/bn (BatchNormaliza  (None, 28, 28, 128)  512        ['conv3_4_3x3[0][0]']            
 tion)                                                                                            
                                                                                                  
 activation_32 (Activation)     (None, 28, 28, 128)  0           ['conv3_4_3x3/bn[0][0]']         
                                                                                                  
 conv3_4_1x1_increase (Conv2D)  (None, 28, 28, 512)  65536       ['activation_32[0][0]']          
                                                                                                  
 conv3_4_1x1_increase/bn (Batch  (None, 28, 28, 512)  2048       ['conv3_4_1x1_increase[0][0]']   
 Normalization)                                                                                   
                                                                                                  
 global_average_pooling2d_6 (Gl  (None, 512)         0           ['conv3_4_1x1_increase/bn[0][0]']
 obalAveragePooling2D)                                                                            
                                                                                                  
 reshape_6 (Reshape)            (None, 1, 1, 512)    0           ['global_average_pooling2d_6[0][0
                                                                 ]']                              
                                                                                                  
 conv3_4_1x1_down (Conv2D)      (None, 1, 1, 32)     16416       ['reshape_6[0][0]']              
                                                                                                  
 activation_33 (Activation)     (None, 1, 1, 32)     0           ['conv3_4_1x1_down[0][0]']       
                                                                                                  
 conv3_4_1x1_up (Conv2D)        (None, 1, 1, 512)    16896       ['activation_33[0][0]']          
                                                                                                  
 activation_34 (Activation)     (None, 1, 1, 512)    0           ['conv3_4_1x1_up[0][0]']         
                                                                                                  
 multiply_6 (Multiply)          (None, 28, 28, 512)  0           ['conv3_4_1x1_increase/bn[0][0]',
                                                                  'activation_34[0][0]']          
                                                                                                  
 add_6 (Add)                    (None, 28, 28, 512)  0           ['multiply_6[0][0]',             
                                                                  'activation_30[0][0]']          
                                                                                                  
 activation_35 (Activation)     (None, 28, 28, 512)  0           ['add_6[0][0]']                  
                                                                                                  
 conv4_1_1x1_reduce (Conv2D)    (None, 14, 14, 256)  131072      ['activation_35[0][0]']          
                                                                                                  
 conv4_1_1x1_reduce/bn (BatchNo  (None, 14, 14, 256)  1024       ['conv4_1_1x1_reduce[0][0]']     
 rmalization)                                                                                     
                                                                                                  
 activation_36 (Activation)     (None, 14, 14, 256)  0           ['conv4_1_1x1_reduce/bn[0][0]']  
                                                                                                  
 conv4_1_3x3 (Conv2D)           (None, 14, 14, 256)  589824      ['activation_36[0][0]']          
                                                                                                  
 conv4_1_3x3/bn (BatchNormaliza  (None, 14, 14, 256)  1024       ['conv4_1_3x3[0][0]']            
 tion)                                                                                            
                                                                                                  
 activation_37 (Activation)     (None, 14, 14, 256)  0           ['conv4_1_3x3/bn[0][0]']         
                                                                                                  
 conv4_1_1x1_increase (Conv2D)  (None, 14, 14, 1024  262144      ['activation_37[0][0]']          
                                )                                                                 
                                                                                                  
 conv4_1_1x1_increase/bn (Batch  (None, 14, 14, 1024  4096       ['conv4_1_1x1_increase[0][0]']   
 Normalization)                 )                                                                 
                                                                                                  
 global_average_pooling2d_7 (Gl  (None, 1024)        0           ['conv4_1_1x1_increase/bn[0][0]']
 obalAveragePooling2D)                                                                            
                                                                                                  
 reshape_7 (Reshape)            (None, 1, 1, 1024)   0           ['global_average_pooling2d_7[0][0
                                                                 ]']                              
                                                                                                  
 conv4_1_1x1_down (Conv2D)      (None, 1, 1, 64)     65600       ['reshape_7[0][0]']              
                                                                                                  
 activation_38 (Activation)     (None, 1, 1, 64)     0           ['conv4_1_1x1_down[0][0]']       
                                                                                                  
 conv4_1_1x1_up (Conv2D)        (None, 1, 1, 1024)   66560       ['activation_38[0][0]']          
                                                                                                  
 activation_39 (Activation)     (None, 1, 1, 1024)   0           ['conv4_1_1x1_up[0][0]']         
                                                                                                  
 conv4_1_1x1_proj (Conv2D)      (None, 14, 14, 1024  524288      ['activation_35[0][0]']          
                                )                                                                 
                                                                                                  
…
 add_7 (Add)                    (None, 14, 14, 1024  0           ['multiply_7[0][0]',             
                                )                                 'conv4_1_1x1_proj/bn[0][0]']    
                                                                                                  
 activation_40 (Activation)     (None, 14, 14, 1024  0           ['add_7[0][0]']                  
                                )                                                                 
                                                                                                  
 conv4_2_1x1_reduce (Conv2D)    (None, 14, 14, 256)  262144      ['activation_40[0][0]']          
                                                                                                  
 conv4_2_1x1_reduce/bn (BatchNo  (None, 14, 14, 256)  1024       ['conv4_2_1x1_reduce[0][0]']     
 rmalization)                                                                                     
                                                                                                  
 activation_41 (Activation)     (None, 14, 14, 256)  0           ['conv4_2_1x1_reduce/bn[0][0]']  
                                                                                                  
 conv4_2_3x3 (Conv2D)           (None, 14, 14, 256)  589824      ['activation_41[0][0]']          
                                                                                                  
 conv4_2_3x3/bn (BatchNormaliza  (None, 14, 14, 256)  1024       ['conv4_2_3x3[0][0]']            
 tion)                                                                                            
                                                                                                  
 activation_42 (Activation)     (None, 14, 14, 256)  0           ['conv4_2_3x3/bn[0][0]']         
                                                                                                  
 conv4_2_1x1_increase (Conv2D)  (None, 14, 14, 1024  262144      ['activation_42[0][0]']          
                                )                                                                 
                                                                                                  
 conv4_2_1x1_increase/bn (Batch  (None, 14, 14, 1024  4096       ['conv4_2_1x1_increase[0][0]']   
 Normalization)                 )                                                                 
                                                                                                  
 global_average_pooling2d_8 (Gl  (None, 1024)        0           ['conv4_2_1x1_increase/bn[0][0]']
 obalAveragePooling2D)                                                                            
                                                                                                  
 reshape_8 (Reshape)            (None, 1, 1, 1024)   0           ['global_average_pooling2d_8[0][0
                                                                 ]']                              
                                                                                                  
 conv4_2_1x1_down (Conv2D)      (None, 1, 1, 64)     65600       ['reshape_8[0][0]']              
                                                                                                  
 activation_43 (Activation)     (None, 1, 1, 64)     0           ['conv4_2_1x1_down[0][0]']       
                                                                                                  
 conv4_2_1x1_up (Conv2D)        (None, 1, 1, 1024)   66560       ['activation_43[0][0]']          
                                                                                                  
 activation_44 (Activation)     (None, 1, 1, 1024)   0           ['conv4_2_1x1_up[0][0]']         
                                                                                                  
 multiply_8 (Multiply)          (None, 14, 14, 1024  0           ['conv4_2_1x1_increase/bn[0][0]',
                                )                                 'activation_44[0][0]']          
                                                                                                  
…
 add_12 (Add)                   (None, 14, 14, 1024  0           ['multiply_12[0][0]',            
                                )                                 'activation_60[0][0]']          
                                                                                                  
 activation_65 (Activation)     (None, 14, 14, 1024  0           ['add_12[0][0]']                 
                                )                                                                 
                                                                                                  
 conv5_1_1x1_reduce (Conv2D)    (None, 7, 7, 512)    524288      ['activation_65[0][0]']          
                                                                                                  
 conv5_1_1x1_reduce/bn (BatchNo  (None, 7, 7, 512)   2048        ['conv5_1_1x1_reduce[0][0]']     
 rmalization)                                                                                     
                                                                                                  
 activation_66 (Activation)     (None, 7, 7, 512)    0           ['conv5_1_1x1_reduce/bn[0][0]']  
                                                                                                  
 conv5_1_3x3 (Conv2D)           (None, 7, 7, 512)    2359296     ['activation_66[0][0]']          
                                                                                                  
 conv5_1_3x3/bn (BatchNormaliza  (None, 7, 7, 512)   2048        ['conv5_1_3x3[0][0]']            
 tion)                                                                                            
                                                                                                  
 activation_67 (Activation)     (None, 7, 7, 512)    0           ['conv5_1_3x3/bn[0][0]']         
                                                                                                  
 conv5_1_1x1_increase (Conv2D)  (None, 7, 7, 2048)   1048576     ['activation_67[0][0]']          
                                                                                                  
 conv5_1_1x1_increase/bn (Batch  (None, 7, 7, 2048)  8192        ['conv5_1_1x1_increase[0][0]']   
 Normalization)                                                                                   
                                                                                                  
 global_average_pooling2d_13 (G  (None, 2048)        0           ['conv5_1_1x1_increase/bn[0][0]']
 lobalAveragePooling2D)                                                                           
                                                                                                  
 reshape_13 (Reshape)           (None, 1, 1, 2048)   0           ['global_average_pooling2d_13[0][
                                                                 0]']                             
                                                                                                  
 conv5_1_1x1_down (Conv2D)      (None, 1, 1, 128)    262272      ['reshape_13[0][0]']             
                                                                                                  
 activation_68 (Activation)     (None, 1, 1, 128)    0           ['conv5_1_1x1_down[0][0]']       
                                                                                                  
 conv5_1_1x1_up (Conv2D)        (None, 1, 1, 2048)   264192      ['activation_68[0][0]']          
                                                                                                  
 activation_69 (Activation)     (None, 1, 1, 2048)   0           ['conv5_1_1x1_up[0][0]']         
                                                                                                  
 conv5_1_1x1_proj (Conv2D)      (None, 7, 7, 2048)   2097152     ['activation_65[0][0]']          
                                                                                                  
 multiply_13 (Multiply)         (None, 7, 7, 2048)   0           ['conv5_1_1x1_increase/bn[0][0]',
                                                                  'activation_69[0][0]']          
                                                                                                  
 conv5_1_1x1_proj/bn (BatchNorm  (None, 7, 7, 2048)  8192        ['conv5_1_1x1_proj[0][0]']       
 alization)                                                                                       
                                                                                                  
 add_13 (Add)                   (None, 7, 7, 2048)   0           ['multiply_13[0][0]',            
                                                                  'conv5_1_1x1_proj/bn[0][0]']    
                                                                                                  
 activation_70 (Activation)     (None, 7, 7, 2048)   0           ['add_13[0][0]']                 
                                                                                                  
 conv5_2_1x1_reduce (Conv2D)    (None, 7, 7, 512)    1048576     ['activation_70[0][0]']          
                                                                                                  
 conv5_2_1x1_reduce/bn (BatchNo  (None, 7, 7, 512)   2048        ['conv5_2_1x1_reduce[0][0]']     
 rmalization)                                                                                     
                                                                                                  
 activation_71 (Activation)     (None, 7, 7, 512)    0           ['conv5_2_1x1_reduce/bn[0][0]']  
                                                                                                  
 conv5_2_3x3 (Conv2D)           (None, 7, 7, 512)    2359296     ['activation_71[0][0]']          
                                                                                                  
 conv5_2_3x3/bn (BatchNormaliza  (None, 7, 7, 512)   2048        ['conv5_2_3x3[0][0]']            
 tion)                                                                                            
                                                                                                  
 activation_72 (Activation)     (None, 7, 7, 512)    0           ['conv5_2_3x3/bn[0][0]']         
                                                                                                  
 conv5_2_1x1_increase (Conv2D)  (None, 7, 7, 2048)   1048576     ['activation_72[0][0]']          
                                                                                                  
 conv5_2_1x1_increase/bn (Batch  (None, 7, 7, 2048)  8192        ['conv5_2_1x1_increase[0][0]']   
 Normalization)                                                                                   
                                                                                                  
 global_average_pooling2d_14 (G  (None, 2048)        0           ['conv5_2_1x1_increase/bn[0][0]']
 lobalAveragePooling2D)                                                                           
                                                                                                  
 reshape_14 (Reshape)           (None, 1, 1, 2048)   0           ['global_average_pooling2d_14[0][
                                                                 0]']                             
                                                                                                  
 conv5_2_1x1_down (Conv2D)      (None, 1, 1, 128)    262272      ['reshape_14[0][0]']             
                                                                                                  
 activation_73 (Activation)     (None, 1, 1, 128)    0           ['conv5_2_1x1_down[0][0]']       
                                                                                                  
 conv5_2_1x1_up (Conv2D)        (None, 1, 1, 2048)   264192      ['activation_73[0][0]']          
                                                                                                  
 activation_74 (Activation)     (None, 1, 1, 2048)   0           ['conv5_2_1x1_up[0][0]']         
                                                                                                  
 multiply_14 (Multiply)         (None, 7, 7, 2048)   0           ['conv5_2_1x1_increase/bn[0][0]',
                                                                  'activation_74[0][0]']          
                                                                                                  
 add_14 (Add)                   (None, 7, 7, 2048)   0           ['multiply_14[0][0]',            
                                                                  'activation_70[0][0]']          
                                                                                                  
 activation_75 (Activation)     (None, 7, 7, 2048)   0           ['add_14[0][0]']                 
                                                                                                  
 conv5_3_1x1_reduce (Conv2D)    (None, 7, 7, 512)    1048576     ['activation_75[0][0]']          
                                                                                                  
 conv5_3_1x1_reduce/bn (BatchNo  (None, 7, 7, 512)   2048        ['conv5_3_1x1_reduce[0][0]']     
 rmalization)                                                                                     
                                                                                                  
 activation_76 (Activation)     (None, 7, 7, 512)    0           ['conv5_3_1x1_reduce/bn[0][0]']  
                                                                                                  
 conv5_3_3x3 (Conv2D)           (None, 7, 7, 512)    2359296     ['activation_76[0][0]']          
                                                                                                  
 conv5_3_3x3/bn (BatchNormaliza  (None, 7, 7, 512)   2048        ['conv5_3_3x3[0][0]']            
 tion)                                                                                            
                                                                                                  
 activation_77 (Activation)     (None, 7, 7, 512)    0           ['conv5_3_3x3/bn[0][0]']         
                                                                                                  
 conv5_3_1x1_increase (Conv2D)  (None, 7, 7, 2048)   1048576     ['activation_77[0][0]']          
                                                                                                  
 conv5_3_1x1_increase/bn (Batch  (None, 7, 7, 2048)  8192        ['conv5_3_1x1_increase[0][0]']   
 Normalization)                                                                                   
                                                                                                  
 global_average_pooling2d_15 (G  (None, 2048)        0           ['conv5_3_1x1_increase/bn[0][0]']
 lobalAveragePooling2D)                                                                           
                                                                                                  
 reshape_15 (Reshape)           (None, 1, 1, 2048)   0           ['global_average_pooling2d_15[0][
                                                                 0]']                             
                                                                                                  
 conv5_3_1x1_down (Conv2D)      (None, 1, 1, 128)    262272      ['reshape_15[0][0]']             
                                                                                                  
 activation_78 (Activation)     (None, 1, 1, 128)    0           ['conv5_3_1x1_down[0][0]']       
                                                                                                  
 conv5_3_1x1_up (Conv2D)        (None, 1, 1, 2048)   264192      ['activation_78[0][0]']          
                                                                                                  
 activation_79 (Activation)     (None, 1, 1, 2048)   0           ['conv5_3_1x1_up[0][0]']         
                                                                                                  
 multiply_15 (Multiply)         (None, 7, 7, 2048)   0           ['conv5_3_1x1_increase/bn[0][0]',
                                                                  'activation_79[0][0]']          
                                                                                                  
 add_15 (Add)                   (None, 7, 7, 2048)   0           ['multiply_15[0][0]',            
                                                                  'activation_75[0][0]']          
                                                                                                  
 activation_80 (Activation)     (None, 7, 7, 2048)   0           ['add_15[0][0]']                 
                                                                                                  
 avg_pool (AveragePooling2D)    (None, 1, 1, 2048)   0           ['activation_80[0][0]']          
                                                                                                  
 flatten (Flatten)              (None, 2048)         0           ['avg_pool[0][0]']               
                                                                                                  
 dense (Dense)                  (None, 128)          262272      ['flatten[0][0]']                
                                                                                                  
 dropout (Dropout)              (None, 128)          0           ['dense[0][0]']                  
                                                                                                  
 classifier (Dense)             (None, 2)            258         ['dropout[0][0]']                
                                                                                                  
==================================================================================================
Total params: 26,354,674
Trainable params: 5,778,050
Non-trainable params: 20,576,624
__________________________________________________________________________________________________
